Free VRAM 78.676513671875 GB
âœ… VAE decoder initialized with default VAE
is causal...
CausalWanModel(
  (patch_embedding): Conv3d(16, 1536, kernel_size=(1, 2, 2), stride=(1, 2, 2))
  (text_embedding): Sequential(
    (0): Linear(in_features=4096, out_features=1536, bias=True)
    (1): GELU(approximate='tanh')
    (2): Linear(in_features=1536, out_features=1536, bias=True)
  )
  (time_embedding): Sequential(
    (0): Linear(in_features=256, out_features=1536, bias=True)
    (1): SiLU()
    (2): Linear(in_features=1536, out_features=1536, bias=True)
  )
  (time_projection): Sequential(
    (0): SiLU()
    (1): Linear(in_features=1536, out_features=9216, bias=True)
  )
  (blocks): ModuleList(
    (0-29): 30 x CausalWanAttentionBlock(
      (norm1): WanLayerNorm((1536,), eps=1e-06, elementwise_affine=False)
      (self_attn): CausalWanSelfAttention(
        (q): Linear(in_features=1536, out_features=1536, bias=True)
        (k): Linear(in_features=1536, out_features=1536, bias=True)
        (v): Linear(in_features=1536, out_features=1536, bias=True)
        (o): Linear(in_features=1536, out_features=1536, bias=True)
        (norm_q): WanRMSNorm()
        (norm_k): WanRMSNorm()
      )
      (norm3): WanLayerNorm((1536,), eps=1e-06, elementwise_affine=True)
      (cross_attn): WanT2VCrossAttention(
        (q): Linear(in_features=1536, out_features=1536, bias=True)
        (k): Linear(in_features=1536, out_features=1536, bias=True)
        (v): Linear(in_features=1536, out_features=1536, bias=True)
        (o): Linear(in_features=1536, out_features=1536, bias=True)
        (norm_q): WanRMSNorm()
        (norm_k): WanRMSNorm()
      )
      (norm2): WanLayerNorm((1536,), eps=1e-06, elementwise_affine=False)
      (ffn): Sequential(
        (0): Linear(in_features=1536, out_features=8960, bias=True)
        (1): GELU(approximate='tanh')
        (2): Linear(in_features=8960, out_features=1536, bias=True)
      )
    )
  )
  (head): CausalHead(
    (norm): WanLayerNorm((1536,), eps=1e-06, elementwise_affine=False)
    (head): Linear(in_features=1536, out_features=64, bias=True)
  )
)
KV inference with 3 frames per block
ðŸš€ Starting demo on http://0.0.0.0:5001
 * Serving Flask app 'demo'
 * Debug mode: off
Client connected
Client disconnected
Client connected
ðŸ“¡ Frame sender thread started
Prompt: A stylish woman walks down a Tokyo street filled with warm glowing neon and animated city signage. She wears a black leather jacket, a long red dress, and black boots, and carries a black purse. She wears sunglasses and red lipstick. She walks confidently and casually. The street is damp and reflective, creating a mirror effect of the colorful lights. Many pedestrians walk about.
…
